AI_Book/example3/mnist_quant.tflite (tflite, 24608 bytes, 2 tensors)

sequential/dense/MatMul i1 [10, 2028] scale=0.012512886 zero_point=0
0.10010309 0.0 0.025025772 0.13764174 0.06256443 0.03753866 0.11261597 0.07507732
0.050051544 0.025025772 0.12512887 0.38789946 -0.0875902 0.10010309 -0.0875902 -0.0875902
0.25025773 0.16266751 -0.22523195 0.28779638 -0.025025772 0.03753866 -0.03753866 0.1751804
-0.03753866 0.12512887 0.0875902 -0.2627706 -0.07507732 0.012512886 0.0875902 -0.11261597
0.0 0.10010309 0.07507732 0.1751804 0.07507732 0.025025772 -0.06256443 0.0
-0.03753866 0.10010309 -0.06256443 0.025025772 0.22523195 -0.050051544 -0.07507732 0.0
-0.03753866 0.15015464 0.06256443 -0.10010309 0.07507732 -0.06256443 0.16266751 -0.03753866
0.012512886 -0.07507732 0.012512886 0.07507732 -0.050051544 0.28779638 0.0 -0.012512886
-0.012512886 -0.03753866 -0.10010309 -0.012512886 0.0875902 -0.16266751 0.025025772 0.1751804
0.0 0.23774484 0.15015464 -0.03753866 -0.15015464 0.025025772 -0.16266751 -0.21271907
-0.18769328 -0.20020618 0.11261597 0.10010309 0.050051544 0.18769328 0.0875902 -0.050051544
-0.25025773 0.0 -0.025025772 -0.050051544 -0.20020618 0.07507732 0.012512886 0.10010309
-0.012512886 -0.12512887 0.0875902 -0.06256443 0.12512887 0.0875902 -0.025025772 0.050051544
-0.025025772 0.18769328 -0.025025772 0.012512886 0.16266751 -0.03753866 0.20020618 0.0
0.03753866 0.11261597 0.3503608 -0.03753866 0.06256443 0.13764174 0.0875902 0.32533503
0.11261597 0.10010309 0.1751804 0.0 0.12512887 0.0875902 0.050051544 0.10010309
-0.03753866 -0.06256443 0.10010309 0.5130283 0.0875902 0.16266751 0.22523195 0.16266751
-0.050051544 0.13764174 0.2752835 0.025025772 0.18769328 0.11261597 0.012512886 -0.07507732
0.025025772 0.025025772 -0.025025772 0.025025772 0.15015464 0.15015464 0.0875902 0.10010309
0.07507732 0.050051544 0.15015464 0.07507732 0.012512886 0.0 -0.03753866 0.025025772
-0.025025772 -0.16266751 0.06256443 -0.16266751 0.025025772 -0.012512886 0.03753866 0.16266751
0.06256443 -0.03753866 0.06256443 -0.0875902 -0.07507732 -0.03753866 0.050051544 0.050051544
0.03753866 0.0875902 0.15015464 0.06256443 0.0 -0.2752835 0.012512886 -0.050051544
0.012512886 -0.025025772 0.0 0.012512886 -0.07507732 -0.06256443 0.10010309 -0.025025772
-0.03753866 -0.20020618 -0.0875902 -0.025025772 -0.012512886 -0.2752835 -0.06256443 -0.10010309
-0.03753866 -0.13764174 -0.012512886 -0.16266751 -0.11261597 0.23774484 0.03753866 0.03753866
0.012512886 0.03753866 -0.06256443 0.012512886 0.0875902 -0.5255412 -0.0875902 0.13764174
0.025025772 0.20020618 -0.07507732 0.11261597 0.03753866 -0.10010309 0.07507732 -0.012512886
0.23774484 -0.23774484 -0.03753866 0.11261597 -0.012512886 0.03753866 0.050051544 0.050051544
-0.13764174 -0.2627706 -0.20020618 -0.050051544 -0.11261597 0.0 0.03753866 0.15015464
0.0 0.07507732 0.0 0.0875902 -0.13764174 -0.06256443 -0.07507732 -0.03753866
-0.20020618 -0.012512886 -0.050051544 -0.07507732 -0.07507732 -0.07507732 0.16266751 -0.050051544
00000000: 0800 020b 0503 0906 0402 0a1f f908 f9f9
00000010: 140d ee17 fe03 fd0e fd0a 07eb fa01 07f7
00000020: 0008 060e 0602 fb00 fd08 fb02 12fc fa00
00000030: fd0c 05f8 06fb 0dfd 01fa 0106 fc17 00ff
00000040: fffd f8ff 07f3 020e 0013 0cfd f402 f3ef
00000050: f1f0 0908 040f 07fc ec00 fefc f006 0108
00000060: fff6 07fb 0a07 fe04 fe0f fe01 0dfd 1000
00000070: 0309 1cfd 050b 071a 0908 0e00 0a07 0408
00000080: fdfb 0829 070d 120d fc0b 1602 0f09 01fa
00000090: 0202 fe02 0c0c 0708 0604 0c06 0100 fd02
000000a0: fef3 05f3 02ff 030d 05fd 05f9 fafd 0404
000000b0: 0307 0c05 00ea 01fc 01fe 0001 fafb 08fe
000000c0: fdf0 f9fe ffea fbf8 fdf5 fff3 f713 0303
000000d0: 0103 fb01 07d6 f90b 0210 fa09 03f8 06ff
000000e0: 13ed fd09 ff03 0404 f5eb f0fc f700 030c
000000f0: 0006 0007 f5fb fafd f0ff fcfa fafa 0dfc

sequential/conv2d/Conv2D i1 [12, 3, 3, 1]
-21 114 91 -54 -127 -102 21 60
46 -59 -75 -81 -18 -47 -127 57
-1 -30 -31 -127 -43 -59 -2 77
-24 115 65 45 111 -25 -50 54
77 -127 -52 -6 127 -52 -106 89
2 -37 50 -2 -75 -89 126 -127
-11 120 -106 79 64 -51 -95 -31
127 -86 -33 116 -31 -4 35 98
1 -94 29 99 -127 -21 63 -40
-113 127 -10 -93 48 46 -127 36
89 116 -45 23 -40 -127 0 -76
-16 91 1 -23 -88 -15 -35 127
28 53 -51 109 72 118 -17 -84
35 6 -120 -127
00000000: eb72 5bca 819a 153c 2ec5 b5af eed1 8139
00000010: ffe2 e181 d5c5 fe4d e873 412d 6fe7 ce36
00000020: 4d81 ccfa 7fcc 9659 02db 32fe b5a7 7e81
00000030: f578 964f 40cd a1e1 7faa df74 e1fc 2362
00000040: 01a2 1d63 81eb 3fd8 8f7f f6a3 302e 8124
00000050: 5974 d317 d881 00b4 f05b 01e9 a8f1 dd7f
00000060: 1c35 cd6d 4876 efac 2306 8881
