AI_Book/example3/model_quat.tflite (tflite, 252632 bytes, 4 tensors)

sequential/quant_conv2d/Conv2D;sequential/quant_conv2d/LastValueQuant/FakeQuantWithMinMaxVarsPerChannel i1 [64, 3, 3, 1]
77 -25 66 -4 55 10 23 127
80 77 125 -85 90 -105 127 27
-52 59 -47 -44 88 127 71 -59
-47 -30 -3 127 6 -41 106 58
15 -83 41 116 -78 71 5 -13
-26 -110 101 127 -82 61 127 27
25 34 -36 48 59 -91 127 51
-71 86 99 -87 -25 -67 10 -76
79 -96 39 22 127 -21 -52 16
3 54 39 -72 -107 127 20 -103
39 15 -83 14 -15 20 -114 -31
-127 -56 -85 44 119 7 -11 127
-40 67 97 -8 -68 -49 54 75
5 70 127 66 110 127 -81 -43
124 -16 56 101 -3 -28 29 -31
-108 -58 66 20 -52 127 -2 -15
44 -95 -127 46 123 -70 49 41
-101 125 -84 52 109 -126 -117 127
-114 -32 66 -90 -48 -34 -127 -79
28 -57 127 40 76 122 -28 15
41 -33 36 -115 -2 19 95 -90
-123 83 127 -113 -24 105 -127 83
75 -57 55 13 -71 -127 -50 -30
-85 9 88 6 -23 127 -73 -50
103 109 -80 24 -79 -82 127 115
46 -68 70 -46 -79 110 95 -53
97 127 -86 36 62 -93 -17 -54
93 32 -127 55 43 -114 31 18
-23 -127 8 15 -79 49 63 71
-29 30 30 35 -124 62 82 -98
127 -59 -43 10 69 -82 -24 61
127 103 103 1 48 45 102 13
00000000: 4de7 42fc 370a 177f 504d 7dab 5a97 7f1b
00000010: cc3b d1d4 587f 47c5 d1e2 fd7f 06d7 6a3a
00000020: 0fad 2974 b247 05f3 e692 657f ae3d 7f1b
00000030: 1922 dc30 3ba5 7f33 b956 63a9 e7bd 0ab4
00000040: 4fa0 2716 7feb cc10 0336 27b8 957f 1499
00000050: 270f ad0e f114 8ee1 81c8 ab2c 7707 f57f
00000060: d843 61f8 bccf 364b 0546 7f42 6e7f afd5
00000070: 7cf0 3865 fde4 1de1 94c6 4214 cc7f fef1
00000080: 2ca1 812e 7bba 3129 9b7d ac34 6d82 8b7f
00000090: 8ee0 42a6 d0de 81b1 1cc7 7f28 4c7a e40f
000000a0: 29df 248d fe13 5fa6 8553 7f8f e869 8153
000000b0: 4bc7 370d b981 cee2 ab09 5806 e97f b7ce
000000c0: 676d b018 b1ae 7f73 2ebc 46d2 b16e 5fcb
000000d0: 617f aa24 3ea3 efca 5d20 8137 2b8e 1f12
000000e0: e981 080f b131 3f47 e31e 1e23 843e 529e
000000f0: 7fc5 d50a 45ae e83d 7f67 6701 302d 660d

sequential/quant_conv2d_1/Conv2D;sequential/quant_conv2d_1/LastValueQuant/FakeQuantWithMinMaxVarsPerChannel i1 [64, 3, 3, 64]
58 17 -13 -20 38 -6 20 22
-17 45 -5 -17 5 -35 -25 30
-19 -1 -8 -22 -47 0 56 8
-83 28 -72 1 -18 5 59 52
75 -27 43 67 23 29 23 -37
-1 -15 -41 -36 3 36 -39 63
-4 -42 36 -7 34 13 43 -28
-44 -56 21 7 9 12 21 17
-25 -5 -10 49 -28 -7 -24 6
0 23 20 69 55 29 13 31
-67 49 34 -4 7 34 2 30
-15 46 17 52 24 -20 34 5
62 35 -19 -18 48 1 31 -78
-16 70 -87 -28 31 21 25 26
-15 -78 -2 1 -24 8 -8 2
-37 -28 45 53 -27 26 17 37
-23 10 13 20 59 19 13 34
-40 -13 34 5 0 -25 -31 -33
-26 -29 24 2 10 -11 50 -28
23 -35 6 49 1 -63 29 45
2 -43 63 -23 -14 -22 16 -21
45 17 -51 -79 -16 62 2 48
-3 18 -4 45 70 58 41 -7
28 -57 40 -49 8 49 -24 -11
-39 18 10 27 30 42 12 41
-6 -52 -1 -27 -1 15 6 10
-48 -39 -26 11 -22 27 14 56
-52 -11 -51 29 12 8 1 -15
-16 42 -37 43 37 -66 4 -68
-16 25 2 -21 5 -37 12 25
43 19 11 -3 23 19 -43 -5
-25 -43 24 -22 40 22 9 28
00000000: 3a11 f3ec 26fa 1416 ef2d fbef 05dd e71e
00000010: edff f8ea d100 3808 ad1c b801 ee05 3b34
00000020: 4be5 2b43 171d 17db fff1 d7dc 0324 d93f
00000030: fcd6 24f9 220d 2be4 d4c8 1507 090c 1511
00000040: e7fb f631 e4f9 e806 0017 1445 371d 0d1f
00000050: bd31 22fc 0722 021e f12e 1134 18ec 2205
00000060: 3e23 edee 3001 1fb2 f046 a9e4 1f15 191a
00000070: f1b2 fe01 e808 f802 dbe4 2d35 e51a 1125
00000080: e90a 0d14 3b13 0d22 d8f3 2205 00e7 e1df
00000090: e6e3 1802 0af5 32e4 17dd 0631 01c1 1d2d
000000a0: 02d5 3fe9 f2ea 10eb 2d11 cdb1 f03e 0230
000000b0: fd12 fc2d 463a 29f9 1cc7 28cf 0831 e8f5
000000c0: d912 0a1b 1e2a 0c29 facc ffe5 ff0f 060a
000000d0: d0d9 e60b ea1b 0e38 ccf5 cd1d 0c08 01f1
000000e0: f02a db2b 25be 04bc f019 02eb 05db 0c19
000000f0: 2b13 0bfd 1713 d5fb e7d5 18ea 2816 091c

sequential/quant_dense/MatMul;sequential/quant_dense/LastValueQuant/FakeQuantWithMinMaxVars i1 [128, 1600] scale=0.0017641863 zero_point=0
0.051161405 -0.0017641863 -0.021170236 0.0017641863 -0.026462795 0.015877677 0.04763303 -0.042340472
-0.038812097 0.005292559 0.010585118 0.038812097 -0.07938839 -0.0141134905 0.05292559 -0.09173769
-0.017641863 0.008820931 0.010585118 0.06351071 0.054689776 -0.012349304 0.012349304 -0.051161405
-0.049397215 -0.042340472 -0.010585118 -0.06351071 0.015877677 -0.03704791 0.049397215 0.056453962
-0.017641863 -0.0070567452 0.015877677 -0.021170236 0.017641863 0.024698608 0.058218148 -0.021170236
-0.019406049 -0.03351954 -0.0035283726 0.0017641863 0.015877677 -0.0035283726 -0.03351954 -0.022934422
0.0 0.038812097 0.035283726 -0.054689776 0.021170236 0.021170236 0.021170236 0.0035283726
0.03351954 -0.06351071 0.029991167 -0.07586001 0.049397215 0.0141134905 -0.010585118 0.040576287
0.068803266 -0.03351954 -0.024698608 0.044104658 -0.058218148 0.029991167 0.028226981 -0.059982333
-0.03351954 -0.005292559 -0.0017641863 0.040576287 -0.0141134905 -0.045868844 -0.035283726 0.054689776
0.019406049 0.049397215 0.065274894 0.0070567452 0.03351954 0.06703908 0.03704791 0.049397215
0.04763303 0.022934422 0.008820931 -0.029991167 0.021170236 0.040576287 0.035283726 0.06174652
0.005292559 0.056453962 -0.16583352 0.051161405 -0.05292559 0.024698608 0.065274894 -0.03351954
-0.035283726 0.035283726 0.042340472 -0.044104658 -0.005292559 -0.054689776 0.06703908 0.015877677
0.019406049 0.0017641863 -0.056453962 0.054689776 -0.005292559 0.058218148 -0.0035283726 -0.019406049
0.068803266 0.03351954 0.056453962 -0.024698608 0.042340472 0.026462795 -0.0035283726 0.051161405
0.06703908 0.054689776 -0.049397215 0.07233164 0.008820931 0.035283726 0.0141134905 0.026462795
0.07586001 -0.019406049 -0.012349304 -0.021170236 -0.022934422 -0.051161405 -0.035283726 0.03704791
0.065274894 0.026462795 0.010585118 0.022934422 0.019406049 0.019406049 -0.03351954 -0.05292559
-0.056453962 -0.045868844 -0.0070567452 -0.042340472 -0.054689776 0.05292559 0.028226981 0.022934422
0.1287856 0.08291676 -0.022934422 -0.029991167 0.0017641863 -0.024698608 0.019406049 0.017641863
0.054689776 0.058218148 -0.045868844 -0.06174652 -0.028226981 0.0141134905 0.0017641863 0.005292559
0.084680945 0.104086995 -0.026462795 0.035283726 0.029991167 0.0141134905 0.065274894 0.10232281
0.09350187 0.0141134905 0.08115257 -0.0035283726 0.031755354 0.017641863 0.11996467 -0.056453962
0.059982333 0.077624194 -0.03704791 0.068803266 -0.029991167 0.07938839 0.051161405 0.058218148
-0.012349304 0.021170236 0.051161405 0.026462795 0.045868844 0.008820931 0.059982333 0.008820931
-0.056453962 -0.019406049 0.054689776 -0.038812097 -0.051161405 0.068803266 0.040576287 0.049397215
0.051161405 0.049397215 0.054689776 -0.058218148 -0.0017641863 -0.0141134905 0.0017641863 0.040576287
-0.008820931 0.0070567452 0.08115257 0.044104658 0.044104658 -0.05292559 -0.049397215 0.012349304
0.005292559 -0.0035283726 0.022934422 -0.029991167 0.0 0.005292559 0.012349304 0.058218148
0.06703908 -0.031755354 -0.022934422 0.06703908 0.059982333 0.044104658 0.0 -0.068803266
0.116436295 -0.045868844 -0.049397215 -0.06174652 0.054689776 -0.029991167 -0.0141134905 0.04763303
00000000: 1dff f401 f109 1be8 ea03 0616 d3f8 1ecc
00000010: f605 0624 1ff9 07e3 e4e8 fadc 09eb 1c20
00000020: f6fc 09f4 0a0e 21f4 f5ed fe01 09fe edf3
00000030: 0016 14e1 0c0c 0c02 13dc 11d5 1c08 fa17
00000040: 27ed f219 df11 10de edfd ff17 f8e6 ec1f
00000050: 0b1c 2504 1326 151c 1b0d 05ef 0c17 1423
00000060: 0320 a21d e20e 25ed ec14 18e7 fde1 2609
00000070: 0b01 e01f fd21 fef5 2713 20f2 180f fe1d
00000080: 261f e429 0514 080f 2bf5 f9f4 f3e3 ec15
00000090: 250f 060d 0b0b ede2 e0e6 fce8 e11e 100d
000000a0: 492f f3ef 01f2 0b0a 1f21 e6dd f008 0103
000000b0: 303b f114 1108 253a 3508 2efe 120a 44e0
000000c0: 222c eb27 ef2d 1d21 f90c 1d0f 1a05 2205
000000d0: e0f5 1fea e327 171c 1d1c 1fdf fff8 0117
000000e0: fb04 2e19 19e2 e407 03fe 0def 0003 0721
000000f0: 26ee f326 2219 00d9 42e6 e4dd 1fef f81b

sequential/quant_dense_1/MatMul;sequential/quant_dense_1/LastValueQuant/FakeQuantWithMinMaxVars i1 [10, 128] scale=0.0029178942 zero_point=0
0.13714102 -0.12255155 0.043768413 0.12838735 0.05543999 -0.11963366 0.18382733 -0.16923787
0.08170104 -0.043768413 -0.07002946 -0.11963366 0.11963366 0.16340208 -0.07002946 0.046686307
-0.17507365 0.09629051 0.18674523 -0.032096837 -0.21008837 -0.21300627 -0.023343153 0.20425259
0.08461893 -0.0496042 0.08170104 0.18966313 0.08753683 0.1488126 0.18382733 -0.07878314
0.07294735 0.05543999 -0.1488126 0.03501473 0.0 -0.043768413 -0.06419367 -0.17215575
-0.07002946 0.011671577 -0.1984168 -0.029178942 0.1517305 0.1458947 -0.029178942 0.13714102
-0.18674523 -0.03501473 0.03501473 -0.04085052 -0.04085052 -0.22759575 0.1517305 -0.23051363
-0.20717049 -0.06711157 -0.03501473 -0.07294735 0.18966313 -0.18966313 0.12838735 -0.06711157
0.07586525 0.1546484 0.21884206 0.0029178942 0.1546484 0.07002946 -0.043768413 -0.10212629
-0.058357883 -0.11671577 0.026261047 0.18090944 0.037932623 -0.13714102 -0.08170104 0.17799154
-0.16340208 -0.19258101 0.21008837 -0.08170104 0.04085052 0.06711157 0.18674523 0.06419367
-0.09045472 0.02042526 0.19258101 -0.03501473 0.14005892 -0.18966313 0.12255155 -0.05543999
-0.1546484 0.04085052 0.05543999 -0.023343153 -0.2013347 -0.17215575 0.06419367 0.14005892
0.13130523 -0.15756628 -0.21008837 0.017507365 0.026261047 -0.061275776 0.014589471 -0.02042526
-0.11671577 -0.061275776 0.15756628 0.17507365 -0.12546945 -0.17507365 0.17799154 -0.105044186
0.18674523 -0.026261047 0.16631997 0.16048418 -0.08461893 -0.1984168 -0.05543999 0.0087536825
0.058357883 0.11379787 -0.058357883 -0.02042526 -0.11671577 -0.16923787 0.10212629 0.06711157
-0.07294735 0.17507365 -0.02042526 -0.27428204 -0.1458947 -0.13130523 0.17799154 -0.023343153
-0.10796209 -0.22467785 -0.2451031 -0.043768413 0.16923787 -0.017507365 -0.23343153 -0.13422313
0.16631997 -0.029178942 -0.026261047 0.09337261 0.032096837 -0.09629051 0.017507365 0.05543999
0.14005892 -0.21300627 -0.1517305 -0.058357883 -0.21008837 -0.23343153 -0.052522093 -0.2013347
0.0496042 -0.2013347 0.046686307 0.18966313 -0.1517305 -0.07002946 0.20425259 -0.16340208
-0.22467785 0.0087536825 0.13422313 -0.09629051 -0.12838735 0.02042526 0.061275776 -0.17215575
-0.1984168 0.06419367 -0.058357883 -0.026261047 -0.0496042 0.04085052 0.03501473 0.13422313
-0.1546484 0.18382733 0.1546484 -0.24218522 0.11963366 0.0496042 -0.19258101 0.046686307
0.12838735 -0.22175996 -0.02042526 0.12255155 -0.12838735 -0.16340208 0.18382733 0.21008837
0.105044186 -0.17215575 0.058357883 0.20717049 0.011671577 0.18674523 -0.08170104 0.11671577
0.07002946 -0.17799154 -0.11963366 0.11963366 0.1458947 -0.1984168 -0.061275776 -0.043768413
-0.06419367 0.18674523 -0.18966313 0.046686307 -0.017507365 -0.037932623 0.058357883 -0.043768413
0.11379787 -0.0029178942 0.037932623 -0.22175996 -0.2013347 -0.13714102 -0.18382733 0.22467785
0.21300627 -0.07294735 0.18090944 -0.18090944 0.07878314 0.1517305 0.12255155 0.14005892
0.09337261 0.105044186 -0.046686307 0.07586525 0.1517305 0.07294735 0.0029178942 0.1546484
00000000: 2fd6 0f2c 13d7 3fc6 1cf1 e8d7 2938 e810
00000010: c421 40f5 b8b7 f846 1def 1c41 1e33 3fe5
00000020: 1913 cd0c 00f1 eac5 e804 bcf6 3432 f62f
00000030: c0f4 0cf2 f2b2 34b1 b9e9 f4e7 41bf 2ce9
00000040: 1a35 4b01 3518 f1dd ecd8 093e 0dd1 e43d
00000050: c8be 48e4 0e17 4016 e107 42f4 30bf 2aed
00000060: cb0e 13f8 bbc5 1630 2dca b806 09eb 05f9
00000070: d8eb 363c d5c4 3ddc 40f7 3937 e3bc ed03
00000080: 1427 ecf9 d8c6 2317 e73c f9a2 ced3 3df8
00000090: dbb3 acf1 3afa b0d2 39f6 f720 0bdf 0613
000000a0: 30b7 ccec b8b0 eebb 11bb 1041 cce8 46c8
000000b0: b303 2edf d407 15c5 bc16 ecf7 ef0e 0c2e
000000c0: cb3f 35ad 2911 be10 2cb4 f92a d4c8 3f48
000000d0: 24c5 1447 0440 e428 18c3 d729 32bc ebf1
000000e0: ea40 bf10 faf3 14f1 27ff 0db4 bbd1 c14d
000000f0: 49e7 3ec2 1b34 2a30 2024 f01a 3419 0135
