AI_Book/example3/model.tflite (tflite, 409060 bytes, 4 tensors)

sequential/dense/BiasAdd/ReadVariableOp f4 [128]
0	0xbc4209fe	-0.011843203
1	0x3cce17ab	0.02515777
2	0x3cc2fbe6	0.023801755
3	0x3ce9eae8	0.028554395
4	0x3e982062	0.29712206
5	0x3cec9b0c	0.028882526
6	0x3deba473	0.115059756
7	0x3dbc6fe2	0.092010275
8	0x3d925c11	0.071464665
9	0xbdf311b6	-0.118686125
10	0xbd847deb	-0.064693294
11	0x3e49c67d	0.19704624
12	0xbd1dbb60	-0.038508773
13	0x3d7577a1	0.05992854
14	0xbc4a3ce1	-0.012343616
15	0x3bcd3f46	0.0062636463
16	0xbdbf07bc	-0.09327647
17	0x3d4dd847	0.050255086
18	0xbd08f53e	-0.033437006
19	0x3e1011a5	0.14069231
20	0xbe0569be	-0.13028619
21	0x3d90dc73	0.07073297
22	0x3d80c742	0.062880054
23	0x3e479ca4	0.19493347
24	0x3e655b08	0.22398007
25	0x3d16e13e	0.0368359
26	0x3da1dbc7	0.07903247
27	0x3e671f6d	0.22570582
28	0x3e1c85b5	0.1528538
29	0xbe8863d1	-0.26638654
30	0x3e2803e3	0.16407733
31	0x3a45597d	0.00075282884
32	0xbdb03056	-0.08602969
33	0xbc3f7456	-0.0116854515
34	0x3e9e884c	0.3096336
35	0x3e4b0c8c	0.19829005
36	0xbc13614b	-0.008995364
37	0x3d943719	0.072370715
38	0xbb777a37	-0.0037762055
39	0xbd1586a3	-0.036505353
40	0xbcc2c4a7	-0.023775412
41	0x3e51e315	0.20496781
42	0x3ebfbc7b	0.37448487
43	0xbc94b223	-0.018151348
44	0x3e4a5a48	0.19761002
45	0x3e9b92fd	0.3038558
46	0x3e3aa2ef	0.18226217
47	0x3dd78b03	0.10524561
48	0xbc5b5492	-0.013386862
49	0xbceba32c	-0.02876433
50	0x3baef9e2	0.005339847
51	0x3e6d9ed0	0.23205113
52	0xbe10da76	-0.14145836
53	0x3c2f79db	0.010710205
54	0xbe3c1916	-0.18368945
55	0xbc8c73c5	-0.017145047
56	0x3dc10f25	0.09426717
57	0x3d970829	0.07374603
58	0x3d540c79	0.051769707
59	0xbdbe8bde	-0.09304021
60	0xbde077bc	-0.109603375
61	0x3c20ce09	0.009814748
62	0x3e2dd289	0.16974844
63	0xbdb1aa5a	-0.0867507
64	0xbe8903fe	-0.26760858
65	0x3d582001	0.052764896
66	0x3e9a55fb	0.30143723
67	0x3d326204	0.043550506
68	0x3e0389ab	0.12845485
69	0xbaa4ef9e	-0.0012583619
70	0x3e30adc8	0.17253792
71	0x3c08a5f1	0.008340345
72	0xbc88ec20	-0.016714156
73	0x3cd25fdd	0.025680477
74	0xbdc6a5c1	-0.09699584
75	0x3e659968	0.22421801
76	0x3e02e663	0.12783198
77	0x3d02027a	0.031740643
78	0x3e1c7d6c	0.1528222
79	0x3d82d329	0.06387932
80	0xbc3da43b	-0.0115748
81	0x3e1b81e0	0.15186262
82	0x3dde2a8e	0.108479604
83	0x3e424a83	0.18973736
84	0x3d540b46	0.051768564
85	0x3e47ea01	0.19522859
86	0xbd8267e9	-0.063674755
87	0x3e69f477	0.22847162
88	0x3e6d58d3	0.23178415
89	0x3e008556	0.12550864
90	0x3e55b2ce	0.2086899
91	0xbc8a1d2a	-0.01685961
92	0xbbc78fed	-0.0060901553
93	0xbdca6498	-0.09882468
94	0x3e30f31f	0.17280243
95	0x3d34adc0	0.044111013
96	0x3e48bcfd	0.19603343
97	0x3d9aee6b	0.07565006
98	0x3eab8d66	0.33506316
99	0x3d994899	0.0748455
100	0xbe17a858	-0.14810312
101	0x3c050cc5	0.00812072
102	0x3e2ac056	0.16674933
103	0x3ee4c2c3	0.4467984
104	0xbd92f3a5	-0.07175378
105	0x3d9abc28	0.07555419
106	0x3dca7887	0.0988627
107	0x3e8bbc07	0.2729189
108	0xbd91fc3c	-0.07128188
109	0x3b1bbca4	0.0023763562
110	0x3e8a97c8	0.27068925
111	0x3d17ad53	0.03703053
112	0xbc5a3749	-0.013318845
113	0x3e1ed5e5	0.15511282
114	0x3b9a6dc6	0.004712793
115	0x3db9a57e	0.09064768
116	0xbe14d5f0	-0.14534736
117	0x3def5c26	0.11687498
118	0x3d7220b9	0.059113238
119	0x3dfb218a	0.122622564
120	0xbe10cafc	-0.14139932
121	0xbe26393d	-0.16232772
122	0x3deafb13	0.1147367
123	0x3e939bad	0.2882971
124	0xbdf9c4d7	-0.12195747
125	0x3e5d4739	0.216092
126	0x3e310ea8	0.17290747
127	0x3d9e8f00	0.07742119

sequential/dense_1/BiasAdd/ReadVariableOp f4 [10]
0	0x3c7aaede	0.015300481
1	0xbe3b943c	-0.18318266
2	0x3d7a1ffd	0.061065663
3	0x3e03290d	0.12808628
4	0xbe296dc0	-0.16545773
5	0x3e16a667	0.14711915
6	0x3d8d6b23	0.069052
7	0x3d922c63	0.07137372
8	0xbe2e64fa	-0.17030707
9	0xbe575d94	-0.21031791

sequential/dense/MatMul f4 [128, 784]
0	0x3d6e007e	0.058105938
1	0x3ca2d174	0.019875266
2	0x3c801c10	0.015638381
3	0x3c7ccd18	0.015429758
4	0x3d0655f2	0.032796808
5	0x3d95ba49	0.07310922
6	0x3d593976	0.053033315
7	0x3d836e21	0.0641749
8	0xbcab5c0a	-0.020917911
9	0x3d0d1426	0.034443043
10	0xbd3db787	-0.046317603
11	0x3b42667d	0.0029663139
12	0x3c9754cb	0.01847305
13	0xbc1bc76c	-0.009507995
14	0xbc22aa76	-0.009928336
15	0x3d5ecf83	0.054397117
16	0xbd6f4ddb	-0.058423858
17	0xbd6a37c9	-0.057182107
18	0xbceb2e36	-0.028708559
19	0x3c1d98b8	0.0096189305
20	0x3c7583e0	0.014985055
21	0xbd27476a	-0.04083959
22	0xbd8e632f	-0.069525115
23	0xbd3078b3	-0.043083858
24	0xbc67f970	-0.014158592
25	0xbd7bf87c	-0.06151627
26	0xbd651176	-0.055924855
27	0xbd534879	-0.051582787
28	0xbc01e018	-0.007926963
29	0xbd2999f4	-0.041406587
30	0xbd8013fe	-0.06253813
31	0x3d038192	0.03210599
32	0xbd8aa44b	-0.06769618
33	0xbd1c480f	-0.038154658
34	0xbd841488	-0.064492285
35	0x3d8773ef	0.066139095
36	0xbab74500	-0.0013982356
37	0xbcc66ac6	-0.024220835
38	0x3d1f05a7	0.03882375
39	0x3b85303d	0.0040645883
40	0xbceee4e9	-0.029161887
41	0xbcc0fed0	-0.023559004
42	0x3d62f4bb	0.055409174
43	0x3d96b22f	0.073582046
44	0xbd2443bd	-0.040103663
45	0x3c12a501	0.008950473
46	0xbb4a69c0	-0.0030885786
47	0xb8239800	-3.900379e-05
48	0xbc0a9198	-0.008457564
49	0xbd99d84f	-0.07511961
50	0xbc14bfb0	-0.009078905
51	0xbd159941	-0.036523107
52	0x3d5d8de2	0.054090388
53	0xbd0f7131	-0.035020057
54	0xbd9ada11	-0.07561124
55	0xbc0e2a10	-0.008677021
56	0xbd665d34	-0.05624123
57	0xbd5305a4	-0.05151905
58	0xbcda8ba6	-0.026677918
59	0xbd98b104	-0.07455638
60	0xbd0e8d30	-0.034802616
61	0xbc62e108	-0.013847597
62	0xbd484ea8	-0.048903137
63	0xbd5a6b83	-0.053325187
64	0xbd36a68a	-0.044592418
65	0x3bcecdfd	0.006311177
66	0xbc903d0d	-0.017607236
67	0xbd4cd405	-0.050006885
68	0x3d96e1fb	0.07367321
69	0x3c013a29	0.007887402
70	0xbd77403b	-0.06036399
71	0xbcf2a9ee	-0.029622044
72	0x3d4becbf	0.049786326
73	0xbd08e835	-0.033424575
74	0x3bf5f23b	0.0075056828
75	0xbc9aa656	-0.018878143
76	0xbd1cce19	-0.038282488
77	0x3d51ac8e	0.05118995
78	0x3cad073c	0.021121614
79	0xbd98f54d	-0.074686624
80	0x3d91955b	0.071085654
81	0x3d772402	0.060337074
82	0x3caa2bdf	0.020772872
83	0xbd385c65	-0.04500999
84	0x3da08223	0.078373216
85	0x3cd1bfc8	0.025604144
86	0x3c4f8880	0.0126668215
87	0x3d73b242	0.05949617
88	0xbd8e9a3a	-0.0696301
89	0xbd5628c2	-0.052284963
90	0xbd82fdd8	-0.06396073
91	0x3c03f5f8	0.008054249
92	0xbb5f189c	-0.0034041768
93	0xbd7ab4ed	-0.0612077
94	0xbd155412	-0.03645713
95	0x3b040856	0.002014657
96	0xbd5c1dae	-0.053739242
97	0xbd87439b	-0.066046916
98	0xbd73bcd6	-0.05950626
99	0x3d6cc4c7	0.05780485
100	0xbd8af75d	-0.06785462
101	0xbdaf0068	-0.08544999
102	0xbce043d7	-0.027376099
103	0xbc4e128d	-0.012577665
104	0x3cb0a3e1	0.021562519
105	0x3d7b486a	0.061348356
106	0xbc3b1e1d	-0.011420754
107	0x3cd7ff60	0.02636689
108	0xbd89fe9e	-0.067380175
109	0xbd8d8228	-0.06909591
110	0xbd670455	-0.056400616
111	0x3d0ed393	0.03486974
112	0xb98bb400	-0.00026646256
113	0xbc9a4a1e	-0.01883417
114	0x3b77b6a0	0.0037798062
115	0xbb4d6d00	-0.0031345487
116	0x3c83e734	0.016101457
117	0xbd18b349	-0.037280355
118	0x3d40f60a	0.04710964
119	0xbcc8e576	-0.024523478
120	0xb93265b6	-0.00017013293
121	0xbd259a2c	-0.040430233
122	0xbd98543b	-0.07437941
123	0xbd29fa52	-0.04149849
124	0xbd7a3268	-0.061083227
125	0xbc5dbe18	-0.013534091
126	0xbd8b1318	-0.06790751
127	0xbd897488	-0.0671168
128	0x3cc581c5	0.02410973
129	0xbd64a9d2	-0.055826016
130	0x3cfe5515	0.03104643
131	0xbc2920b3	-0.0103227375
132	0xbb00beee	-0.0019645053
133	0x3d15bb7e	0.03655576
134	0xbd8a6e80	-0.067593575
135	0x3d72fff2	0.05932612
136	0x3d070c77	0.03297087
137	0x3d07c186	0.033143543
138	0x3cc64860	0.024204433
139	0xbcb46c51	-0.022024306
140	0xbce07f60	-0.027404487
141	0x3c8e3338	0.017358407
142	0xbb83afc0	-0.0040187538
143	0x3d8579c0	0.065173626
144	0x3d792ff6	0.060836755
145	0xbd36d2c0	-0.04463458
146	0xbd492765	-0.049109835
147	0xbd145194	-0.03621061
148	0x3d1c8788	0.03821519
149	0x3d4b6878	0.049660176
150	0x3cc3e536	0.023913007
151	0xbd729be3	-0.059230696
152	0x3d6bfe06	0.057615303
153	0xbd0ea058	-0.034820884
154	0xbd0a3103	-0.033738147
155	0xbc019c5a	-0.007910812
156	0xbdaee819	-0.08540363
157	0x3d1a4e60	0.0376724
158	0xbd90c49b	-0.070687495
159	0x3d1e2329	0.03860775
160	0xbcfb7a04	-0.03069783
161	0x3bdc1eda	0.006717545
162	0xbd5aece4	-0.053448573
163	0xbd1b74c9	-0.037953172
164	0xbda96e66	-0.0827301
165	0xbd967fd2	-0.073485985
166	0xbc735b0f	-0.014853253
167	0xbc3aef66	-0.011409616
168	0xbd3357a6	-0.04378476
169	0xbd863e72	-0.06554879
170	0xbcce54f9	-0.025187002
171	0x3c55ed88	0.01305712
172	0xbd3780ca	-0.044800557
173	0xbda6cbb7	-0.08144324
174	0xbd232fd4	-0.039840534
175	0x3d24e0d2	0.040253468
176	0x3d6940d2	0.056946583
177	0x3adbad1f	0.0016759968
178	0xbc25c58d	-0.010117901
179	0xbc8500e0	-0.016235769
180	0xbd6d2f90	-0.057906687
181	0xbda54b29	-0.08070976
182	0xbd393b5e	-0.045222633
183	0xbd02e968	-0.031960875
184	0x3d67a51c	0.056553945
185	0xbd99f661	-0.07517696
186	0xbd04f0a2	-0.032456048
187	0xbc0bcb29	-0.008532324
188	0xbc8052b9	-0.015664445
189	0x3c215670	0.009847268
190	0x3d0439d3	0.032281708
191	0x3d25fa13	0.040521692
192	0xbc33c5f0	-0.010972485
193	0xbda3c21d	-0.079960085
194	0xbd087f6e	-0.03332465
195	0x3ca13cbc	0.01968228
196	0xbd980663	-0.07423093
197	0xbb85e948	-0.004086647
198	0x3d866fc7	0.065642886
199	0xbd5eeeec	-0.054427072
200	0x3c46b4f8	0.012128107
201	0x3c17238b	0.009224783
202	0x3d3b8e72	0.045790143
203	0x3c7402e8	0.014893271
204	0x3d8ba4ef	0.06818568
205	0x3ab0e391	0.0013495554
206	0xbd0adbed	-0.033901144
207	0x3d337f2d	0.043822456
208	0x3d55d6ec	0.05220692
209	0xbd442d97	-0.04789504
210	0xbd09b21c	-0.033617124
211	0x3d0dd89a	0.034630395
212	0x3c871a40	0.01649201
213	0xbb6be7a2	-0.0035996218
214	0x3d3bb613	0.045827936
215	0xbc9de929	-0.019276218
216	0xbc08d6c2	-0.0083519835
217	0xbca290b1	-0.019844385
218	0x3d8cd2a4	0.06876114
219	0x3d74df51	0.059783284
220	0xbcf2148f	-0.029550819
221	0x3d50a38e	0.050937228
222	0xbc98a635	-0.018633941
223	0x3d8f2554	0.06989542
224	0xbda32c8e	-0.079674825
225	0x3c24419e	0.01002541
226	0xbda69d17	-0.08135431
227	0xbbb356f6	-0.005473013
228	0x3bc18155	0.00590531
229	0xbd0ef2a4	-0.03489937
230	0x3b2e1ffa	0.0026569352
231	0xbdac838b	-0.08423527
232	0xba96b742	-0.0011498707
233	0xbd9005d2	-0.0703236
234	0x3ca635f1	0.020289393
235	0xbbf55dd2	-0.007487991
236	0x3b8808a4	0.0041514207
237	0xbc737a2d	-0.014860672
238	0x3bbb72d4	0.0057204757
239	0xbd58b930	-0.052910984
240	0xbb25bc84	-0.0025289366
241	0xbd051e52	-0.03249962
242	0xbc6941eb	-0.0142369075
243	0x3d320bf1	0.04346842
244	0xbd88a3b8	-0.06671852
245	0x3d00704c	0.031357095
246	0x3c9faaf8	0.019490704
247	0xbd3e327b	-0.04643486
248	0xbd4f5dfc	-0.05062674
249	0xbd798478	-0.060917348
250	0xbd3a8706	-0.045538925
251	0x3d2d2ac0	0.042277098
252	0x3ccb5dad	0.024824942
253	0xbcfc47ac	-0.030795895
254	0x3ce27d5b	0.027647665
255	0x3c8bc0ad	0.017059648

sequential/dense_1/MatMul f4 [10, 128]
0	0x3e4360d2	0.19079903
1	0xbdd9e7f5	-0.106399454
2	0xbd016077	-0.031586137
3	0xbe128941	-0.1431017
4	0xbed17af5	-0.4091412
5	0x3db5bb39	0.088736005
6	0x3e20a9eb	0.15689819
7	0x3ea44b84	0.32088864
8	0x3ce65cad	0.028120363
9	0xbe0277af	-0.12740968
10	0x3d3f3b88	0.046687633
11	0xbe45e2a9	-0.19324745
12	0x3dc3c694	0.0955936
13	0xbd85e746	-0.065382525
14	0x3cf69967	0.030102445
15	0x3df66864	0.1203163
16	0xbe593b13	-0.21213941
17	0x3d65aaf6	0.056071244
18	0x3d5c9dbf	0.053861376
19	0xbdceb894	-0.10093799
20	0x3c191394	0.009343047
21	0xbd49d32d	-0.04927366
22	0x3c509873	0.012731659
23	0xbd9746f4	-0.0738658
24	0x3e175cd5	0.14781506
25	0xbe763e6d	-0.24047251
26	0xbe30d535	-0.17268832
27	0xbdbdb1d9	-0.092624374
28	0x3d5387bc	0.05164312
29	0xbe13d029	-0.14434876
30	0x3e2efa24	0.17087609
31	0xbe52f44e	-0.20601007
32	0xbd27495c	-0.040841445
33	0x3e31df91	0.1737044
34	0xbdfd7fc3	-0.12377884
35	0x3e20ab18	0.15690267
36	0xbd724348	-0.059146196
37	0x3c3e282f	0.01160626
38	0xbe10c184	-0.1413632
39	0xbe4b03a7	-0.19825612
40	0x3d207192	0.03917081
41	0xbefde6b2	-0.4959007
42	0xbe1a9955	-0.15097554
43	0x3ead8f12	0.33898216
44	0x3d99c4d6	0.075082466
45	0xbe10087b	-0.14065735
46	0xbd9b1020	-0.07571435
47	0x3e4b98de	0.19882533
48	0xbc8b9bf4	-0.017042138
49	0xbe397f20	-0.181149
50	0xbe882a0b	-0.26594576
51	0xbe424c1c	-0.18974346
52	0x3e29bae2	0.16575196
53	0xbe6f755b	-0.23384611
54	0x3d7f0f4e	0.062270455
55	0x3dda44d2	0.10657658
56	0x3eac6495	0.33670488
57	0x3c52891d	0.012850073
58	0xbe203c1c	-0.1564793
59	0xbe128474	-0.1430834
60	0x3c9ea60d	0.019366289
61	0xbe31820f	-0.1733477
62	0x3e24a970	0.1608026
63	0xbeb1602f	-0.34643695
64	0xbd978b43	-0.07399609
65	0xbd932685	-0.071850814
66	0x3e454f0d	0.19268437
67	0xbde22526	-0.11042242
68	0xbbbfa08d	-0.0058479966
69	0xbede579f	-0.43426225
70	0xbb8cbea6	-0.004295188
71	0x3defa16d	0.117007114
72	0xbd9a015c	-0.075197905
73	0xbdbf4464	-0.09339216
74	0x3d277fc0	0.040893316
75	0x3e0ff372	0.14057711
76	0x3e58b201	0.21161653
77	0x3d5ddf7b	0.054168206
78	0xbe165612	-0.1468127
79	0x3e27c997	0.16385494
80	0x3e03d08a	0.1287252
81	0x3e002f81	0.12518121
82	0xbe6fa49c	-0.23402637
83	0x3e500afe	0.20316693
84	0xbe26357d	-0.16231342
85	0xbe3f8557	-0.18703209
86	0x3e2386f6	0.15969452
87	0xbe05f39a	-0.13081208
88	0x3dcb2999	0.099200435
89	0x3dcaa7af	0.09895264
90	0xbed2dd99	-0.4118469
91	0x3df76c00	0.12081146
92	0xbe024809	-0.12722792
93	0x3e12252f	0.14271997
94	0x3dddd16d	0.108309604
95	0x3d887646	0.06663184
96	0x3d97b642	0.0740781
97	0x3b87557f	0.004130065
98	0xbe6455c6	-0.22298345
99	0x3dab408c	0.08361921
100	0x3e20675f	0.15664433
101	0x3d6310d7	0.05543598
102	0xbdc4e5b5	-0.09614126
103	0x3c42d473	0.011891472
104	0xbdc20b4c	-0.09474811
105	0xbe000817	-0.12503086
106	0xbdbeb130	-0.093111396
107	0x3e4e18e0	0.20126677
108	0xbea63300	-0.32460785
109	0xbdf29946	-0.11845641
110	0xbe271124	-0.16315132
111	0x3c9f7327	0.019464089
112	0xbe2498e0	-0.16073942
113	0xbc26e48c	-0.010186326
114	0xbd956e38	-0.07296413
115	0x3d6ad2e0	0.057330012
116	0xbe28af68	-0.16473162
117	0xbd7c7f13	-0.061644625
118	0x3eaa598d	0.33271447
119	0x3e5eeb1a	0.21769372
120	0xbd6bfcb2	-0.057614036
121	0xbe28e2f5	-0.16492827
122	0xbd9373dd	-0.071998335
123	0x3eaf9a1b	0.3429726
124	0x3da419d1	0.080127366
125	0xbe81e0dd	-0.2536687
126	0x3df0eb67	0.117636494
127	0xbd8b7d51	-0.068110116
128	0xbc8b8398	-0.017030522
129	0x3d458aed	0.048228193
130	0x3e5e6a93	0.21720342
131	0x3d493fd7	0.049133148
132	0x3e9391e3	0.2882224
133	0x3e59c6a2	0.21267179
134	0xbdc7f52c	-0.0976356
135	0xbd87dccb	-0.0663391
136	0xbc38631c	-0.011254098
137	0x3e1da8b8	0.15396392
138	0xbd848f2e	-0.06472622
139	0xbdf1b7ce	-0.11802636
140	0xbe18ee31	-0.14934613
141	0x3d369ac8	0.044581205
142	0x3e2dbdf7	0.16966997
143	0xbe77a3de	-0.24183604
144	0xbdc8feb7	-0.09814208
145	0xbe2f0671	-0.17092301
146	0xbec229a3	-0.3792239
147	0xbdbdc66b	-0.09266361
148	0x3d524594	0.051335886
149	0xbe6fbb61	-0.23411323
150	0xbda4db85	-0.080496825
151	0xbd1e1720	-0.038596272
152	0x3caebb81	0.021329643
153	0xbd527982	-0.05138541
154	0xbe1cc8d6	-0.15310988
155	0x3d77c5e5	0.06049146
156	0xbeb8070b	-0.35942873
157	0x3e1591d0	0.14606404
158	0xbdaa044c	-0.08301601
159	0x3eb0a4e7	0.3450081
160	0xbd071a4c	-0.032984063
161	0x3e3fb506	0.18721399
162	0xbeabc13e	-0.3354587
163	0xbdd7cf40	-0.10537577
164	0x3e0832cd	0.13300629
165	0x3e2b76bd	0.16744514
166	0x3ed20454	0.41018927
167	0x3e24426a	0.1604096
168	0xbe7b9b25	-0.24570902
169	0xbf47bd7b	-0.780235
170	0xbed5bbdc	-0.41744888
171	0xbdf4dc85	-0.11956123
172	0xbec70e94	-0.3887831
173	0xbe2c7f96	-0.16845545
174	0xbeb09e5f	-0.34495828
175	0xbc9bf780	-0.019038916
176	0xbd5bc126	-0.053650998
177	0xbe26606e	-0.16247723
178	0xbec998f7	-0.39374515
179	0xbdeb6777	-0.11494344
180	0xbd974557	-0.073862724
181	0x3d6e7b39	0.058222983
182	0xbe8a76ea	-0.2704385
183	0x3e3ee2b1	0.18641163
184	0xbcd168e3	-0.02556271
185	0xbcd8cdcd	-0.026465321
186	0xbe9946e5	-0.299369
187	0xbec18998	-0.37800288
188	0x3eb94457	0.36184952
189	0x3e24861f	0.16066788
190	0xbec5bcc8	-0.3862059
191	0x3e6809a9	0.22659935
192	0xbe86e36b	-0.2634538
193	0x3e643662	0.2228637
194	0xbe27ea2c	-0.16397923
195	0x3e3f85e6	0.18703422
196	0xbe883f8e	-0.26610988
197	0xbe7b4cbb	-0.24540989
198	0xbdee51e0	-0.1163671
199	0xbd90a8ad	-0.07063422
200	0x3e313f83	0.17309384
201	0xbe3b7801	-0.18307497
202	0xbd3f9a1b	-0.046777826
203	0xbeaa4564	-0.33256066
204	0x3ec0b4cc	0.37637937
205	0xbe8cab8d	-0.27474633
206	0xbef6f71f	-0.48235413
207	0x3e6c07a7	0.23049794
208	0xbdc809ad	-0.097674705
209	0xbe176790	-0.147856
210	0x3d6ed9a0	0.058313012
211	0xbe6240ef	-0.22095083
212	0xbe1f5c99	-0.15562667
213	0xbe47e230	-0.19519877
214	0x3e01e11c	0.12683529
215	0xbe34c22c	-0.17652196
216	0xbe5f1f4a	-0.2178928
217	0xbe8cedfe	-0.27525324
218	0xbe8a556a	-0.2701829
219	0x3e029526	0.12752208
220	0xba3284c8	-0.0006809947
221	0x3e43c7ed	0.19119234
222	0x3e61a63b	0.22036068
223	0x3e812924	0.252267
224	0xbe8380be	-0.2568416
225	0xbe6fa1bc	-0.2340154
226	0xbea4a267	-0.32155153
227	0x3e80dcfd	0.251686
228	0x3e993111	0.29920247
229	0xbe59d8db	-0.2127413
230	0xbeaf4e27	-0.34239313
231	0xbf05bf63	-0.5224516
232	0xbd98bd8e	-0.0745803
233	0xbd57af67	-0.05265751
234	0x3de431d5	0.11142317
235	0xbe963481	-0.29336932
236	0xbc3492ac	-0.011021297
237	0x3e9ac996	0.30231923
238	0xbea739eb	-0.32661375
239	0xbe0087f3	-0.1255186
240	0x3e0749f1	0.132118
241	0x3e60e63e	0.2196283
242	0x3e1133db	0.14179938
243	0xbe9ce648	-0.3064444
244	0x3b1b16c6	0.0023664697
245	0x3db5d70d	0.08878908
246	0x3d19cf2f	0.0375511
247	0x3e6bda53	0.23032503
248	0xbdc7780a	-0.097396925
249	0x3f013d1d	0.50483876
250	0x3e4374ef	0.19087575
251	0x3ca8adff	0.02059078
252	0x3de3f103	0.11129954
253	0x3d967c99	0.07347984
254	0xbe588e49	-0.21148027
255	0xbed037a0	-0.40667439
