AI_Book/example3/my_mnist_quant.tflite (tflite, 104824 bytes, 2 tensors)

sequential/dense_1/MatMul i1 [10, 128] scale=0.010520263 zero_point=0
00000000: fc14 14ed 040a ff0e 06bc 04dd e9ec feea
00000010: ff11 14f6 0111 ffe9 d8ff 07ff f60f e8ef
00000020: 0300 f902 f905 fc18 05eb 08e2 09f3 2605
00000030: 0000 f809 0204 ed00 f8db 060d fbe7 faf6
00000040: 05fa 0307 00f2 f715 e018 1bfe 10fa ee10
00000050: 05e6 0801 fcfc 0708 090c 0d02 e507 e903
00000060: 0ae6 0313 00ef f9ef fbf5 06f0 0ddc 0dff
00000070: fa0a 0bf6 ddc8 fbd2 ecf0 1de3 05f8 2207
00000080: e7fc fbb3 1413 f21b 0ac1 e80d e7ea e2ec
00000090: 2ef2 d9cf 02ff b9df f40d f0fd e61f e40d
000000a0: 1fd8 0cfb f2fa 1811 001d dc24 01fb e0f6
000000b0: f3ed 00f9 09e8 080a 25dc ea0b efee 091b
000000c0: cded 07d2 fe01 0eea fdea f0f3 dceb ded3
000000d0: fc05 de14 fc13 f70c c5dc 0c0c d0fc 0af6
000000e0: eb39 eeea 09f3 09f2 effc 14e2 f40c bd08
000000f0: eafb e71f dcf0 07a5 0202 feee 0b38 c393
-0.04208105 0.21040526 0.21040526 -0.199885 0.04208105 0.10520263 -0.010520263 0.14728367
0.06312157 -0.71537787 0.04208105 -0.36820918 -0.24196604 -0.21040526 -0.021040525 -0.23144577
-0.010520263 0.17884447 0.21040526 -0.10520263 0.010520263 0.17884447 -0.010520263 -0.24196604
-0.42081052 -0.010520263 0.07364184 -0.010520263 -0.10520263 0.15780394 -0.2524863 -0.17884447
0.031560786 0.0 -0.07364184 0.021040525 -0.07364184 0.052601315 -0.04208105 0.2524863
0.052601315 -0.22092551 0.0841621 -0.31560788 0.094682366 -0.13676341 0.39977 0.052601315
0.0 0.0 -0.0841621 0.094682366 0.021040525 0.04208105 -0.199885 0.0
-0.0841621 -0.3892497 0.06312157 0.13676341 -0.052601315 -0.26300657 -0.06312157 -0.10520263
0.052601315 -0.06312157 0.031560786 0.07364184 0.0 -0.14728367 -0.094682366 0.22092551
-0.3366484 0.2524863 0.2840471 -0.021040525 0.1683242 -0.06312157 -0.18936473 0.1683242
0.052601315 -0.27352682 0.0841621 0.010520263 -0.04208105 -0.04208105 0.07364184 0.0841621
0.094682366 0.12624314 0.13676341 0.021040525 -0.2840471 0.07364184 -0.24196604 0.031560786
0.10520263 -0.27352682 0.031560786 0.199885 0.0 -0.17884447 -0.07364184 -0.17884447
-0.052601315 -0.11572289 0.06312157 -0.1683242 0.13676341 -0.37872946 0.13676341 -0.010520263
-0.06312157 0.10520263 0.11572289 -0.10520263 -0.36820918 -0.5891347 -0.052601315 -0.48393208
-0.21040526 -0.1683242 0.30508763 -0.30508763 0.052601315 -0.0841621 0.35768893 0.07364184
-0.26300657 -0.04208105 -0.052601315 -0.8100602 0.21040526 0.199885 -0.14728367 0.2840471
0.10520263 -0.6627765 -0.2524863 0.13676341 -0.26300657 -0.23144577 -0.31560788 -0.21040526
0.48393208 -0.14728367 -0.41029024 -0.51549286 0.021040525 -0.010520263 -0.74693865 -0.34716865
-0.12624314 0.13676341 -0.1683242 -0.031560786 -0.27352682 0.32612815 -0.29456735 0.13676341
0.32612815 -0.42081052 0.12624314 -0.052601315 -0.14728367 -0.06312157 0.2524863 0.17884447
0.0 0.30508763 -0.37872946 0.37872946 0.010520263 -0.052601315 -0.3366484 -0.10520263
-0.13676341 -0.199885 0.0 -0.07364184 0.094682366 -0.2524863 0.0841621 0.10520263
0.3892497 -0.37872946 -0.23144577 0.11572289 -0.17884447 -0.18936473 0.094682366 0.2840471
-0.5365334 -0.199885 0.07364184 -0.48393208 -0.021040525 0.010520263 0.14728367 -0.23144577
-0.031560786 -0.23144577 -0.1683242 -0.13676341 -0.37872946 -0.22092551 -0.35768893 -0.47341183
-0.04208105 0.052601315 -0.35768893 0.21040526 -0.04208105 0.199885 -0.094682366 0.12624314
-0.6206955 -0.37872946 0.12624314 0.12624314 -0.5049726 -0.04208105 0.10520263 -0.10520263
-0.22092551 0.599655 -0.18936473 -0.23144577 0.094682366 -0.13676341 0.094682366 -0.14728367
-0.17884447 -0.04208105 0.21040526 -0.31560788 -0.12624314 0.12624314 -0.7048576 0.0841621
-0.23144577 -0.052601315 -0.26300657 0.32612815 -0.37872946 -0.1683242 0.07364184 -0.9573439
0.021040525 0.021040525 -0.021040525 -0.18936473 0.11572289 0.5891347 -0.64173603 -1.1467086

sequential/dense/MatMul i1 [128, 784] scale=0.007081856 zero_point=0
00000000: f1ed f0f6 ebf0 dfe4 e4e5 f202 0719 2611
00000010: 0808 fce8 ebe7 dcef f400 05ea fcfc ece1
00000020: daf2 e9df f6f8 0502 0f11 0e0c 0406 1300
00000030: dee5 ebec dce6 f0e2 f808 e6df dee5 efed
00000040: e0f3 f2fc 030e fe07 08fc f2f7 f7e6 efee
00000050: e6ed f6de 07fb eded dfe9 f4e3 e1f4 0309
00000060: 11fb f809 0cfa f4f6 e1ed f4e9 f5fb f5f9
00000070: 050b fcf2 e1f9 f1e9 e3f6 0900 0901 f4fe
00000080: fa02 fdfa f2ee ede8 e9f0 e9f0 0306 e6f5
00000090: f2ec e3fb f3f4 fe0e 0f04 eeff ef09 ecf5
000000a0: fae9 fcef edfd f705 fd07 faec eefa ecf0
000000b0: f0f7 040f 06f9 e5f7 eeee eff5 fe05 f9f5
000000c0: f4f0 fff9 07f7 02f3 01f1 f7e7 e9f3 100d
000000d0: fdf5 e6f3 f0fa fae7 faf2 f4fc f7f5 ef08
000000e0: faf2 f9f6 f1ef eff9 ece3 0605 02e9 e5fe
000000f0: f8f8 f1f8 eff5 ee04 fb00 0f0e 05f4 f8f5
-0.10622784 -0.13455527 -0.1133097 -0.07081856 -0.14871898 -0.1133097 -0.23370124 -0.19829197
-0.19829197 -0.1912101 -0.099145986 0.014163712 0.049572993 0.1770464 0.26911053 0.120391555
0.05665485 0.05665485 -0.028327424 -0.16996455 -0.14871898 -0.1770464 -0.25494683 -0.120391555
-0.084982276 0.0 0.03540928 -0.15580083 -0.028327424 -0.028327424 -0.14163712 -0.21953754
-0.26911053 -0.099145986 -0.16288269 -0.23370124 -0.07081856 -0.05665485 0.03540928 0.014163712
0.10622784 0.120391555 0.099145986 0.084982276 0.028327424 0.042491138 0.13455527 0.0
-0.24078311 -0.1912101 -0.14871898 -0.14163712 -0.25494683 -0.18412825 -0.1133097 -0.21245568
-0.05665485 0.05665485 -0.18412825 -0.23370124 -0.24078311 -0.1912101 -0.120391555 -0.13455527
-0.2266194 -0.09206413 -0.099145986 -0.028327424 0.021245569 0.099145986 -0.014163712 0.049572993
0.05665485 -0.028327424 -0.099145986 -0.06373671 -0.06373671 -0.18412825 -0.120391555 -0.12747341
-0.18412825 -0.13455527 -0.07081856 -0.24078311 0.049572993 -0.03540928 -0.13455527 -0.13455527
-0.23370124 -0.16288269 -0.084982276 -0.20537382 -0.21953754 -0.084982276 0.021245569 0.06373671
0.120391555 -0.03540928 -0.05665485 0.06373671 0.084982276 -0.042491138 -0.084982276 -0.07081856
-0.21953754 -0.13455527 -0.084982276 -0.16288269 -0.07790042 -0.03540928 -0.07790042 -0.049572993
0.03540928 0.07790042 -0.028327424 -0.099145986 -0.21953754 -0.049572993 -0.10622784 -0.16288269
-0.20537382 -0.07081856 0.06373671 0.0 0.06373671 0.007081856 -0.084982276 -0.014163712
-0.042491138 0.014163712 -0.021245569 -0.042491138 -0.099145986 -0.12747341 -0.13455527 -0.16996455
-0.16288269 -0.1133097 -0.16288269 -0.1133097 0.021245569 0.042491138 -0.18412825 -0.07790042
-0.099145986 -0.14163712 -0.20537382 -0.03540928 -0.09206413 -0.084982276 -0.014163712 0.099145986
0.10622784 0.028327424 -0.12747341 -0.007081856 -0.120391555 0.06373671 -0.14163712 -0.07790042
-0.042491138 -0.16288269 -0.028327424 -0.120391555 -0.13455527 -0.021245569 -0.06373671 0.03540928
-0.021245569 0.049572993 -0.042491138 -0.14163712 -0.12747341 -0.042491138 -0.14163712 -0.1133097
-0.1133097 -0.06373671 0.028327424 0.10622784 0.042491138 -0.049572993 -0.1912101 -0.06373671
-0.12747341 -0.12747341 -0.120391555 -0.07790042 -0.014163712 0.03540928 -0.049572993 -0.07790042
-0.084982276 -0.1133097 -0.007081856 -0.049572993 0.049572993 -0.06373671 0.014163712 -0.09206413
0.007081856 -0.10622784 -0.06373671 -0.1770464 -0.16288269 -0.09206413 0.1133097 0.09206413
-0.021245569 -0.07790042 -0.18412825 -0.09206413 -0.1133097 -0.042491138 -0.042491138 -0.1770464
-0.042491138 -0.099145986 -0.084982276 -0.028327424 -0.06373671 -0.07790042 -0.120391555 0.05665485
-0.042491138 -0.099145986 -0.049572993 -0.07081856 -0.10622784 -0.120391555 -0.120391555 -0.049572993
-0.14163712 -0.20537382 0.042491138 0.03540928 0.014163712 -0.16288269 -0.1912101 -0.014163712
-0.05665485 -0.05665485 -0.10622784 -0.05665485 -0.120391555 -0.07790042 -0.12747341 0.028327424
-0.03540928 0.0 0.10622784 0.099145986 0.03540928 -0.084982276 -0.05665485 -0.07790042
