AI_Book/example3/qaware_ex3.tflite (tflite, 252640 bytes, 4 tensors)

sequential/quant_conv2d/Conv2D;sequential/quant_conv2d/LastValueQuant/FakeQuantWithMinMaxVarsPerChannel i1 [64, 3, 3, 1]
00000000: 4581 21ce 0be6 c67c 322b 5081 3698 5c08
00000010: bf33 cbf0 6a7f 53d3 bfb8 d06f cb9a 4417
00000020: fb81 0e70 a260 06f9 0a8c 5e7f 8d1e 58fc
00000030: 1429 bd19 3181 763b 8157 6b97 d1bd 1df2
00000040: 4681 01f9 5ef4 c421 fc23 27d1 ac7f 0ba0
00000050: 2b25 061d 24e1 e50d 81b2 9e24 71e6 fc7f
00000060: b02a 4acf 81ba 1622 2421 604d 467f 81b9
00000070: 78ce f655 d7b4 05ca 81c1 0bf3 bd2d ffca
00000080: fddc 81ef 2e01 1220 bd6e 9b09 5fa5 a47f
00000090: dbf9 2a81 abed 9797 fb9b 7f08 3578 ce0e
000000a0: 1bb6 2281 eb39 38ae a642 6c9c f76e 814a
000000b0: 3dcc 3501 b381 d6f5 e415 2706 f57f b4c5
000000c0: 4c3a a330 e1da 403a 1599 16b6 8140 15c5
000000d0: 7f75 8b38 4794 f3bc 5c28 8136 3993 1114
000000e0: e486 5923 814a 3c12 dc16 113d 813d 4791
000000f0: 7bc8 dcfa 37a1 d72b 7f43 4bef 2d3f 691f
69 -127 33 -50 11 -26 -58 124
50 43 80 -127 54 -104 92 8
-65 51 -53 -16 106 127 83 -45
-65 -72 -48 111 -53 -102 68 23
-5 -127 14 112 -94 96 6 -7
10 -116 94 127 -115 30 88 -4
20 41 -67 25 49 -127 118 59
-127 87 107 -105 -47 -67 29 -14
70 -127 1 -7 94 -12 -60 33
-4 35 39 -47 -84 127 11 -96
43 37 6 29 36 -31 -27 13
-127 -78 -98 36 113 -26 -4 127
-80 42 74 -49 -127 -70 22 34
36 33 96 77 70 127 -127 -71
120 -50 -10 85 -41 -76 5 -54
-127 -63 11 -13 -67 45 -1 -54
-3 -36 -127 -17 46 1 18 32
-67 110 -101 9 95 -91 -92 127
-37 -7 42 -127 -85 -19 -105 -105
-5 -101 127 8 53 120 -50 14
27 -74 34 -127 -21 57 56 -82
-90 66 108 -100 -9 110 -127 74
61 -52 53 1 -77 -127 -42 -11
-28 21 39 6 -11 127 -76 -59
76 58 -93 48 -31 -38 64 58
21 -103 22 -74 -127 64 21 -59
127 117 -117 56 71 -108 -13 -68
92 40 -127 54 57 -109 17 20
-28 -122 89 35 -127 74 60 18
-36 22 17 61 -127 61 71 -111
123 -56 -36 -6 55 -95 -41 43
127 67 75 -17 45 63 105 31

sequential/quant_conv2d_1/Conv2D;sequential/quant_conv2d_1/LastValueQuant/FakeQuantWithMinMaxVarsPerChannel i1 [64, 3, 3, 64]
00000000: 1907 d3f8 f6fd 0d19 1cfb 06f6 04fe e732
00000010: fdff 01fd cde5 2323 b419 bd00 1420 2840
00000020: 48f7 1730 14ff 29b5 f9f3 aefe 081e e42f
00000030: e8e8 1708 1102 15e9 d2d3 f719 00f7 f5fa
00000040: f5fb f02a c2fb eeff fce8 1531 27fe fb21
00000050: b021 1600 01f5 0a1d e113 f128 0d04 1d0c
00000060: 2010 f402 24f6 15a5 fc25 bdf6 1c19 fe18
00000070: e8c3 fa0d f30c f6eb d6d6 1f16 ef0f fb09
00000080: f9fd 1211 1820 0df9 a6a2 1e0d 0de0 aec6
00000090: df0b 0205 e4ee 25f1 0eda 022d 04c2 2e1b
000000a0: f7e8 1ded 12f7 19d8 1215 b0bc 0224 dd14
000000b0: cf0e 0b1c 3638 0cf8 10d5 19c5 0f26 09ec
000000c0: e306 fc06 160e ebfc 03cb fef9 fc0d 1505
000000d0: e6e9 ff07 1bf4 fb19 d2f2 c80d f205 02e0
000000e0: e309 f122 0ddf efd1 f306 ece4 f8e4 020d
000000f0: 25fb fcf5 031c dff0 d321 2ada 0d0e f2fd
25 7 -45 -8 -10 -3 13 25
28 -5 6 -10 4 -2 -25 50
-3 -1 1 -3 -51 -27 35 35
-76 25 -67 0 20 32 40 64
72 -9 23 48 20 -1 41 -75
-7 -13 -82 -2 8 30 -28 47
-24 -24 23 8 17 2 21 -23
-46 -45 -9 25 0 -9 -11 -6
-11 -5 -16 42 -62 -5 -18 -1
-4 -24 21 49 39 -2 -5 33
-80 33 22 0 1 -11 10 29
-31 19 -15 40 13 4 29 12
32 16 -12 2 36 -10 21 -91
-4 37 -67 -10 28 25 -2 24
-24 -61 -6 13 -13 12 -10 -21
-42 -42 31 22 -17 15 -5 9
-7 -3 18 17 24 32 13 -7
-90 -94 30 13 13 -32 -82 -58
-33 11 2 5 -28 -18 37 -15
14 -38 2 45 4 -62 46 27
-9 -24 29 -19 18 -9 25 -40
18 21 -80 -68 2 36 -35 20
-49 14 11 28 54 56 12 -8
16 -43 25 -59 15 38 9 -20
-29 6 -4 6 22 14 -21 -4
3 -53 -2 -7 -4 13 21 5
-26 -23 -1 7 27 -12 -5 25
-46 -14 -56 13 -14 5 2 -32
-29 9 -15 34 13 -33 -17 -47
-13 6 -20 -28 -8 -28 2 13
37 -5 -4 -11 3 28 -33 -16
-45 33 42 -38 13 14 -14 -3

sequential/quant_dense/MatMul;sequential/quant_dense/LastValueQuant/FakeQuantWithMinMaxVars i1 [128, 1600] scale=0.004048548 zero_point=0
00000000: 11ef fdfd fcfe 09f2 f4f9 f0fc ee00 15ed
00000010: fefc 010d 1005 00f5 edf4 fbed 07f6 0b0d
00000020: 00fa 09f9 0207 0df5 01ff f7fb 0507 f7fb
00000030: f805 0af1 00e8 01fe 03fa 05eb 0c00 12fe
00000040: 1408 040f edf1 11e7 fcff 0ae4 e9f0 f90e
00000050: 0d06 110a 14ff 03f8 03fd fdee f408 0715
00000060: 0011 da0a f202 f109 080c 02f3 fcf4 06fe
00000070: 000e ea12 0209 03fb 0bea 0cf4 0b0f e80d
00000080: 1512 f303 050e 100f 1cf9 fc0c fde7 ed0e
00000090: 260a 0606 18fc faea f6f8 03f5 e1fd 0b05
000000a0: 260a 16fd 02f8 1a1a 1b0d f8f2 fd04 080e
000000b0: 1d20 f514 1500 0f02 19e4 0902 0b15 02f2
000000c0: 10f8 f621 fd11 0911 fe05 0e22 06fe 1110
000000d0: ed01 16f4 f611 1317 0c14 0cfc fcf4 010c
000000e0: f6f7 0214 1601 15eb 0601 0103 0a02 011b
000000f0: 1304 0817 1a06 e0f8 19c9 f3ea 1106 c804
0.06882532 -0.06882532 -0.012145644 -0.012145644 -0.016194193 -0.008097096 0.036436934 -0.056679673
-0.048582576 -0.028339837 -0.06477677 -0.016194193 -0.07287387 0.0 0.085019514 -0.07692242
-0.008097096 -0.016194193 0.004048548 0.052631125 0.06477677 0.020242741 0.0 -0.04453403
-0.07692242 -0.048582576 -0.020242741 -0.07692242 0.028339837 -0.040485483 0.04453403 0.052631125
0.0 -0.024291288 0.036436934 -0.028339837 0.008097096 0.028339837 0.052631125 -0.04453403
0.004048548 -0.004048548 -0.036436934 -0.020242741 0.020242741 0.028339837 -0.036436934 -0.020242741
-0.032388385 0.020242741 0.040485483 -0.060728222 0.0 -0.09716515 0.004048548 -0.008097096
0.012145644 -0.024291288 0.020242741 -0.085019514 0.048582576 0.0 0.07287387 -0.008097096
0.080970965 0.032388385 0.016194193 0.060728222 -0.07692242 -0.060728222 0.06882532 -0.1012137
-0.016194193 -0.004048548 0.040485483 -0.11335935 -0.09311661 -0.06477677 -0.028339837 0.056679673
0.052631125 0.024291288 0.06882532 0.040485483 0.080970965 -0.004048548 0.012145644 -0.032388385
0.012145644 -0.012145644 -0.012145644 -0.07287387 -0.048582576 0.032388385 0.028339837 0.085019514
0.0 0.06882532 -0.15384483 0.040485483 -0.056679673 0.008097096 -0.060728222 0.036436934
0.032388385 0.048582576 0.008097096 -0.052631125 -0.016194193 -0.048582576 0.024291288 -0.008097096
0.0 0.056679673 -0.08906806 0.07287387 0.008097096 0.036436934 0.012145644 -0.020242741
0.04453403 -0.08906806 0.048582576 -0.048582576 0.04453403 0.060728222 -0.09716515 0.052631125
0.085019514 0.07287387 -0.052631125 0.012145644 0.020242741 0.056679673 0.06477677 0.060728222
0.11335935 -0.028339837 -0.016194193 0.048582576 -0.012145644 -0.1012137 -0.07692242 0.056679673
0.15384483 0.040485483 0.024291288 0.024291288 0.09716515 -0.016194193 -0.024291288 -0.08906806
-0.040485483 -0.032388385 0.012145644 -0.04453403 -0.125505 -0.012145644 0.04453403 0.020242741
0.15384483 0.040485483 0.08906806 -0.012145644 0.008097096 -0.032388385 0.10526225 0.10526225
0.1093108 0.052631125 -0.032388385 -0.056679673 -0.012145644 0.016194193 0.032388385 0.056679673
0.117407896 0.12955354 -0.04453403 0.080970965 0.085019514 0.0 0.060728222 0.008097096
0.1012137 -0.11335935 0.036436934 0.008097096 0.04453403 0.085019514 0.008097096 -0.056679673
0.06477677 -0.032388385 -0.040485483 0.13360208 -0.012145644 0.06882532 0.036436934 0.06882532
-0.008097096 0.020242741 0.056679673 0.13765064 0.024291288 -0.008097096 0.06882532 0.06477677
-0.07692242 0.004048548 0.08906806 -0.048582576 -0.040485483 0.06882532 0.07692242 0.09311661
0.048582576 0.080970965 0.048582576 -0.016194193 -0.016194193 -0.048582576 0.004048548 0.048582576
-0.040485483 -0.036436934 0.008097096 0.080970965 0.08906806 0.004048548 0.085019514 -0.085019514
0.024291288 0.004048548 0.004048548 0.012145644 0.040485483 0.008097096 0.004048548 0.1093108
0.07692242 0.016194193 0.032388385 0.09311661 0.10526225 0.024291288 -0.12955354 -0.032388385
0.1012137 -0.22267015 -0.052631125 -0.08906806 0.06882532 0.024291288 -0.2267187 0.016194193

sequential/quant_dense_1/MatMul;sequential/quant_dense_1/LastValueQuant/FakeQuantWithMinMaxVars i1 [10, 128] scale=0.0031351896 zero_point=0
00000000: 2ddb 1028 0ec0 39b1 15d0 d0e3 224f e911
00000010: 981c 29fc b1ba fb44 21ea 233e 182c 3be7
00000020: 1814 ba14 f3f5 e0cb d406 c2f6 302f e32e
00000030: c8f4 0ce9 eac2 35b7 c5ea fbeb 3dcb 3303
00000040: 1c45 45e3 2f27 f8e2 eddd 0e3a 0bcf dc34
00000050: cbc2 42e5 0715 3725 dc05 3bea 29bd 25dc
00000060: c40b 0ef7 c4c4 142e 48cb aa10 0cff 04e5
00000070: d9f5 3b46 d8b5 46d2 3df8 5b33 e7c1 f307
00000080: 0d26 e5e2 ccc9 2515 eb4d fe96 c3cc 38f4
00000090: e0b8 9e0f 3bea abca 3c04 ec28 06d6 0d0f
000000a0: 2ca7 b9db a5ad fba1 44a8 1d3b b7e7 3dd3
000000b0: 9b02 2fd8 b408 18b9 c120 fcf8 e30a 0523
000000c0: c149 359c 2610 9e0f 29a6 ec27 c3cb 3a41
000000d0: 24c1 164c 053c e71a 1cc6 d131 3eb7 f1f2
000000e0: ce46 af01 f8e2 11ec 2afb 03be bac9 bd57
000000f0: 49de 4bb2 1a35 3b2b 1c25 eb12 3221 0057
0.14108354 -0.116002016 0.050163034 0.12540759 0.043892656 -0.20065214 0.17870581 -0.24767998
0.065838985 -0.1504891 -0.1504891 -0.0909205 0.10659645 0.24767998 -0.072109364 0.053298224
-0.32605973 0.08778531 0.12854278 -0.012540759 -0.24767998 -0.21946327 -0.015675949 0.2131929
0.10346126 -0.068974175 0.10973164 0.19438176 0.07524455 0.13794835 0.18497619 -0.07837974
0.07524455 0.062703796 -0.21946327 0.062703796 -0.040757466 -0.034487087 -0.10032607 -0.16616505
-0.13794835 0.018811138 -0.19438176 -0.031351898 0.1504891 0.14735392 -0.0909205 0.14421873
-0.17557062 -0.037622277 0.037622277 -0.072109364 -0.068974175 -0.19438176 0.16616505 -0.22886884
-0.18497619 -0.068974175 -0.015675949 -0.065838985 0.19124657 -0.16616505 0.15989468 0.009405569
0.08778531 0.21632808 0.21632808 -0.0909205 0.14735392 0.122272395 -0.025081517 -0.09405569
-0.059568603 -0.10973164 0.043892656 0.181841 0.034487087 -0.1536243 -0.11286683 0.16302986
-0.16616505 -0.19438176 0.20692252 -0.08465012 0.021946328 0.065838985 0.17243543 0.116002016
-0.11286683 0.015675949 0.18497619 -0.068974175 0.12854278 -0.2100577 0.116002016 -0.11286683
-0.18811138 0.034487087 0.043892656 -0.028216707 -0.18811138 -0.18811138 0.062703796 0.14421873
0.22573365 -0.16616505 -0.26962632 0.050163034 0.037622277 -0.0031351896 0.012540759 -0.08465012
-0.122272395 -0.034487087 0.18497619 0.21946327 -0.12540759 -0.23513922 0.21946327 -0.14421873
0.19124657 -0.025081517 0.28530225 0.15989468 -0.07837974 -0.19751695 -0.040757466 0.021946328
0.040757466 0.119137205 -0.08465012 -0.09405569 -0.16302986 -0.17243543 0.116002016 0.065838985
-0.065838985 0.2414096 -0.0062703793 -0.3323301 -0.19124657 -0.16302986 0.17557062 -0.037622277
-0.10032607 -0.22573365 -0.3072486 0.047027845 0.18497619 -0.068974175 -0.26649112 -0.16930024
0.18811138 0.012540759 -0.062703796 0.12540759 0.018811138 -0.13167797 0.040757466 0.047027845
0.13794835 -0.27903187 -0.22259846 -0.116002016 -0.28530225 -0.26022074 -0.015675949 -0.297843
0.2131929 -0.2758967 0.0909205 0.18497619 -0.22886884 -0.07837974 0.19124657 -0.14108354
-0.31665415 0.0062703793 0.14735392 -0.12540759 -0.23827441 0.025081517 0.07524455 -0.22259846
-0.19751695 0.10032607 -0.012540759 -0.025081517 -0.0909205 0.031351898 0.015675949 0.10973164
-0.19751695 0.22886884 0.16616505 -0.31351897 0.119137205 0.050163034 -0.3072486 0.047027845
0.12854278 -0.28216708 -0.062703796 0.122272395 -0.19124657 -0.16616505 0.181841 0.20378733
0.11286683 -0.19751695 0.068974175 0.23827441 0.015675949 0.18811138 -0.07837974 0.08151493
0.08778531 -0.181841 -0.14735392 0.1536243 0.19438176 -0.22886884 -0.047027845 -0.043892656
-0.15675949 0.21946327 -0.25395036 0.0031351896 -0.025081517 -0.09405569 0.053298224 -0.062703796
0.13167797 -0.015675949 0.009405569 -0.20692252 -0.21946327 -0.17243543 -0.2100577 0.2727615
0.22886884 -0.10659645 0.23513922 -0.24454479 0.08151493 0.16616505 0.18497619 0.13481316
0.08778531 0.116002016 -0.065838985 0.056433413 0.15675949 0.10346126 0.0 0.2727615
