AI_Book/example3/qaware_mnist_quant.tflite (tflite, 105096 bytes, 2 tensors)

sequential/quant_dense/MatMul;sequential/quant_dense/LastValueQuant/FakeQuantWithMinMaxVars i1 [128, 784] scale=0.0047716284 zero_point=0
-0.1336056 0.05725954 -0.014314885 0.047716282 -0.06203117 -0.076346055 -0.047716282 0.009543257
-0.1336056 -0.18132187 0.0047716284 0.095432565 -0.009543257 0.052487914 0.109747455 -0.014314885
0.11929071 0.15269211 -0.042944655 -0.12406234 -0.042944655 -0.1002042 -0.20995165 -0.042944655
0.0047716284 0.076346055 0.0 -0.019086514 0.038173027 0.15269211 -0.052487914 -0.02862977
-0.14314885 0.047716282 -0.023858141 -0.13837722 -0.02862977 0.0334014 0.11451908 0.009543257
0.038173027 0.08588931 0.052487914 -0.02862977 -0.014314885 0.076346055 0.167007 0.038173027
-0.17177862 -0.08588931 0.0 -0.023858141 -0.0668028 0.06203117 0.076346055 -0.052487914
0.023858141 -0.0047716284 -0.11451908 -0.07157443 -0.1002042 -0.009543257 0.019086514 0.0047716284
-0.06203117 -0.0047716284 -0.1002042 -0.12883396 -0.06203117 0.047716282 -0.047716282 -0.009543257
-0.019086514 -0.023858141 -0.07157443 -0.014314885 0.052487914 -0.052487914 0.014314885 0.014314885
-0.05725954 -0.0334014 0.05725954 -0.05725954 0.038173027 -0.095432565 -0.042944655 -0.023858141
-0.0047716284 0.023858141 0.076346055 -0.1002042 -0.08111768 -0.0334014 0.02862977 0.042944655
0.047716282 -0.0668028 -0.02862977 0.023858141 0.07157443 0.009543257 -0.038173027 -0.06203117
-0.15269211 0.0 0.12406234 0.02862977 0.07157443 -0.023858141 0.0 0.076346055
0.08111768 0.047716282 -0.009543257 0.095432565 0.038173027 0.07157443 -0.009543257 -0.02862977
-0.076346055 -0.0334014 0.019086514 -0.038173027 -0.0047716284 0.009543257 -0.042944655 -0.019086514
-0.038173027 0.019086514 0.02862977 0.014314885 -0.05725954 -0.095432565 -0.023858141 0.1002042
0.0334014 -0.052487914 -0.08111768 0.014314885 0.20995165 -0.0047716284 -0.17177862 0.07157443
0.08588931 -0.009543257 -0.06203117 0.076346055 0.023858141 -0.0334014 -0.05725954 0.06203117
0.02862977 0.02862977 -0.11451908 0.0334014 -0.047716282 0.095432565 -0.05725954 -0.009543257
-0.009543257 -0.09066094 0.009543257 0.06203117 0.023858141 0.10497583 0.0047716284 0.15269211
0.042944655 0.009543257 0.0334014 -0.06203117 0.047716282 0.076346055 -0.023858141 -0.009543257
-0.0047716284 0.042944655 0.009543257 0.042944655 -0.0334014 -0.0334014 -0.11929071 -0.038173027
-0.0668028 -0.05725954 -0.038173027 0.014314885 0.009543257 0.07157443 -0.009543257 0.042944655
0.08588931 0.014314885 0.05725954 -0.052487914 0.16223536 -0.052487914 0.0334014 -0.038173027
0.11451908 0.0 0.019086514 -0.06203117 -0.0668028 -0.009543257 0.042944655 0.014314885
-0.05725954 -0.052487914 -0.11451908 -0.06203117 -0.09066094 -0.023858141 0.0334014 -0.052487914
0.019086514 -0.042944655 -0.0047716284 0.038173027 0.06203117 0.009543257 -0.09066094 0.009543257
0.076346055 -0.12406234 -0.07157443 0.019086514 0.019086514 0.0 -0.05725954 0.023858141
-0.047716282 -0.09066094 -0.0047716284 -0.042944655 -0.0334014 -0.10497583 -0.11929071 -0.014314885
-0.047716282 -0.047716282 -0.023858141 0.05725954 -0.0668028 -0.023858141 -0.076346055 0.08111768
0.095432565 0.109747455 0.095432565 0.08111768 0.10497583 -0.1002042 -0.0668028 -0.009543257
00000000: e40c fd0a f3f0 f602 e4da 0114 fe0b 17fd
00000010: 1920 f7e6 f7eb d4f7 0110 00fc 0820 f5fa
00000020: e20a fbe3 fa07 1802 0812 0bfa fd10 2308
00000030: dcee 00fb f20d 10f5 05ff e8f1 ebfe 0401
00000040: f3ff ebe5 f30a f6fe fcfb f1fd 0bf5 0303
00000050: f4f9 0cf4 08ec f7fb ff05 10eb eff9 0609
00000060: 0af2 fa05 0f02 f8f3 e000 1a06 0ffb 0010
00000070: 110a fe14 080f fefa f0f9 04f8 ff02 f7fc
00000080: f804 0603 f4ec fb15 07f5 ef03 2cff dc0f
00000090: 12fe f310 05f9 f40d 0606 e807 f614 f4fe
000000a0: feed 020d 0516 0120 0902 07f3 0a10 fbfe
000000b0: ff09 0209 f9f9 e7f8 f2f4 f803 020f fe09
000000c0: 1203 0cf5 22f5 07f8 1800 04f3 f2fe 0903
000000d0: f4f5 e8f3 edfb 07f5 04f7 ff08 0d02 ed02
000000e0: 10e6 f104 0400 f405 f6ed fff7 f9ea e7fd
000000f0: f6f6 fb0c f2fb f011 1417 1411 16eb f2fe

sequential/quant_dense_1/MatMul;sequential/quant_dense_1/LastValueQuant/FakeQuantWithMinMaxVars i1 [10, 128] scale=0.006133307 zero_point=0
0.06746638 0.18399921 0.22693235 -0.061333068 0.085866295 0.11039952 -0.079732984 0.19626582
0.14719936 -0.28213212 0.049066454 -0.061333068 -0.28213212 -0.20239912 -0.122666135 -0.19013251
0.079732984 -0.030666534 0.2698655 -0.10426621 -0.085866295 0.19013251 0.091999605 -0.2882654
-0.15333267 -0.012266614 0.15946597 -0.01839992 0.079732984 0.079732984 -0.18399921 -0.030666534
-0.030666534 -0.042933147 -0.19013251 -0.042933147 -0.03679984 0.11039952 -0.061333068 0.25759888
0.091999605 -0.122666135 0.030666534 -0.17173259 0.061333068 -0.16559929 0.22079904 0.09813291
-0.024533227 -0.024533227 -0.07359968 0.12879944 0.024533227 -0.049066454 -0.18399921 0.0
-0.030666534 -0.10426621 0.07359968 0.18399921 -0.024533227 -0.42319816 -0.091999605 -0.06746638
-0.085866295 -0.06746638 -0.030666534 -0.049066454 -0.01839992 -0.1778659 -0.10426621 0.15946597
-0.2882654 0.16559929 0.14719936 -0.024533227 0.14719936 -0.085866295 -0.13493276 -0.06746638
0.07359968 -0.18399921 0.11653283 -0.012266614 0.042933147 -0.03679984 0.091999605 0.079732984
0.049066454 0.15333267 0.14719936 0.079732984 -0.15946597 0.11039952 -0.22079904 -0.07359968
0.11653283 -0.2637322 0.030666534 0.11039952 0.006133307 -0.19013251 -0.14106606 -0.33733186
-0.006133307 -0.21466574 0.07359968 -0.10426621 0.14106606 -0.41706485 0.042933147 -0.042933147
-0.11653283 0.10426621 0.19626582 -0.079732984 -0.2637322 -0.061333068 -0.5519976 -0.049066454
-0.19626582 -0.13493276 0.2637322 -0.1778659 0.061333068 -0.10426621 0.40479824 0.13493276
-0.2637322 -0.024533227 -0.19013251 0.122666135 0.2637322 0.2514656 -0.09813291 0.12879944
0.09813291 -0.17173259 -0.20853242 0.0 -0.48453122 -0.061333068 -0.3741317 -0.091999605
0.2514656 -0.042933147 -0.3618651 -0.3741317 0.049066454 0.030666534 -0.22693235 -0.3495985
-0.15333267 0.14106606 -0.15946597 -0.012266614 -0.14106606 0.17173259 -0.01839992 0.20239912
0.31279865 -0.33119857 0.07359968 0.01839992 -0.049066454 -0.03679984 0.20239912 -0.030666534
0.0 0.2759988 -0.20239912 0.2637322 0.061333068 -0.042933147 -0.28213212 -0.122666135
-0.11653283 -0.20239912 0.03679984 -0.12879944 -0.06746638 -0.16559929 -0.091999605 0.122666135
0.2637322 -0.16559929 -0.22693235 0.091999605 0.0 -0.06746638 0.05519976 0.22693235
-0.22693235 -0.049066454 0.01839992 -0.40479824 -0.03679984 0.122666135 0.21466574 -0.19626582
-0.024533227 -0.21466574 -0.2698655 -0.13493276 -0.30666533 -0.05519976 -0.33119857 -0.5213311
-0.085866295 -0.024533227 -0.2514656 0.20239912 0.06746638 0.14719936 -0.06746638 0.11039952
-0.3557318 -0.24533227 0.11039952 0.061333068 -0.42319816 -0.024533227 0.15333267 0.20853242
-0.20853242 0.39253163 -0.19013251 -0.42933148 0.085866295 -0.11653283 0.09813291 -0.11039952
0.091999605 -0.01839992 0.18399921 -0.14106606 -0.10426621 -0.19013251 -0.34346518 0.30666533
-0.10426621 -0.05519976 -0.28213212 0.2514656 -0.48453122 0.17173259 -0.6562638 0.15333267
-0.03679984 0.012266614 -0.079732984 -0.09813291 0.22693235 0.41706485 -0.30666533 -0.68079704
00000000: 0b1e 25f6 0e12 f320 18d2 08f6 d2df ece1
00000010: 0dfb 2cef f21f 0fd1 e7fe 1afd 0d0d e2fb
00000020: fbf9 e1f9 fa12 f62a 0fec 05e4 0ae5 2410
00000030: fcfc f415 04f8 e200 fbef 0c1e fcbb f1f5
00000040: f2f5 fbf8 fde3 ef1a d11b 18fc 18f2 eaf5
00000050: 0ce2 13fe 07fa 0f0d 0819 180d e612 dcf4
00000060: 13d5 0512 01e1 e9c9 ffdd 0cef 17bc 07f9
00000070: ed11 20f3 d5f6 a6f8 e0ea 2be3 0aef 4216
00000080: d5fc e114 2b29 f015 10e4 de00 b1f6 c3f1
00000090: 29f9 c5c3 0805 dbc7 e717 e6fe e91c fd21
000000a0: 33ca 0c03 f8fa 21fb 002d df2b 0af9 d2ec
000000b0: eddf 06eb f5e5 f114 2be5 db0f 00f5 0925
000000c0: dbf8 03be fa14 23e0 fcdd d4ea cef7 caab
000000d0: f2fc d721 0b18 f512 c6d8 120a bbfc 1922
000000e0: de40 e1ba 0eed 10ee 0ffd 1ee9 efe1 c832
000000f0: eff7 d229 b11c 9519 fa02 f3f0 2544 ce91
